…
ame number of parameters.My simplified model is the following:InputSize = 15MaxLen = 64HiddenSize = 16inputs = keras.layers.Input(shape=(MaxLen, InputSize))x = keras.layers.recurrent.GRU(HiddenSize, return_sequences=True)(inputs)x = keras.layers.TimeDistributed(keras.layers.Dense(InputSize))(x)predictions = keras.layers.Activation('softmax')(x)The summary of the network is:_________________________________________________________________Layer (type)                 Output Shape              Param #   =================================================================input_1 (InputLayer)         (None, 64, 15)            0         _________________________________________________________________gru_1 (GRU)                  (None, 64, 16)            1536      _________________________________________________________________time_distributed_1 (TimeDist (None, 64, 15)            255       _________________________________________________________________activation_1 (Activation)    (None, 64, 15)            0         =================================================================This makes sense to me as my understanding of TimeDistributed is that it applies the same layer at all timepoints, and so the Dense layer has 16*15+15=255 parameters (weights+biases).However, if I switch to a simple Dense layer:inputs = keras.layers.Input(shape=(MaxLen, InputSize))x = keras.layers.recurrent.GRU(HiddenSize, return_sequences=True)(inputs)x = keras.layers.Dense(InputSize)(x)predictions = keras.layers.Activation('softmax')(x)I still only have 255 parameters:_________________________________________________________________Layer (type)                 Output Shape              Param #   =================================================================input_1 (InputLayer)         (None, 64, 15)            0         _________________________________________________________________gru_1 (GRU)                  (None, 64, 16)            1536      _________________________________________________________________dense_1 (Dense)              (None, 64, 15)            255       _________________________________________________________________activation_1 (Activation)    (None, 64, 15)            0         =================================================================I wonder if this is because Dense() will only use the last dimension in the shape, and effectively treat everything else as a batch-like dimension. But then I'm no longer sure what the difference is between Dense and TimeDistributed(Dense).Update Looking at https://github.com/fchollet/keras/blob/master/keras/layers/core.py i
…
for i in range(25):    print(""Cluster %d:"" % i, end='')    for ind in order_centroids[i, :15]:        print(' %s' % terms[ind], end='')    print()However, I would like to know how to figure out which documents all belong in the same cluster, and ideally, their respective distance to the center of the centroid (cluster). I know that each row of the generated matrix (X_train_tfidf) corresponds to a document, but there is no obvious way to get back this information after performing the KMeans algorithm. How would I go about doing this with scikit-learn?X_train_tfidf looks like:X_train_tfidf:   (0, 4661)  0.0405014425985  (0, 19271)    0.0914545222775  (0, 20393)    0.287636818634  (0, 56027)    0.116893929188  (0, 30872)    0.137815327338  (0, 35256)    0.0343461345507  (0, 31291)    0.209804679792  (0, 66008)    0.0643776635222  (0, 3806) 0.0967713285061  (0, 66338)    0.0532881852791  (0, 65023)    0.0702918299573  (0, 41785)    0.197672720592  (0, 29774)    0.120772893833  (0, 61409)    0.0268609667042  (0, 55527)    0.134102682463  (0, 40011)    0.0582437010271  (0, 19667)    0.0234843097048  (0, 51667)    0.128270976476  (0, 52791)    0.57198926651  (0, 15014)    0.149195054799  (0, 18805)    0.0277497826525  (0, 35939)    0.170775938672  (0, 5808) 0.0473913910636  (0, 24922)    0.0126531527875  (0, 10346)    0.0200098997901  : :  (23945, 56927)    0.0595132327966  (23945, 23259)    0.0100977769025  (23945, 12515)    0.0482102583442  (23945, 49709)    0.210139450446  (23945, 28742)    0.0190221880312  (23945, 16628)    0.137692798005  (23945, 53424)    0.157029848335  (23945, 30647)    0.104485375827  (23945, 57512)    0.0569754813269  (23945, 39389)    0.0158180459761  (23945, 26093)    0.0153713768922  (23945, 9787) 0.0963777149738  (23945, 23260)    0.158336452835  (23945, 50595)    0.0527243936945  (23945, 42447)    0.0527515904547  (23945, 2829) 0.0351677269698  (23945, 2832) 0.0175929392039  (23945, 52079)    0.0849796887889  (23945, 13523)    0.0878730969786  (23945, 57849)    0.133869666381  (23945, 25064)    0.128424780903  (23945, 31129)    0.0919760384953  (23945, 65601)    0.0388718258746  (23945, 1428) 0.391477289626  (23945, 2152) 0.655211469073  X_train_tfidf shape: (23946, 67816)In Response to ttttthomasssss's Answer:When I try to run the following:X_cluster_0 = X_train_tfidf[cluster_0]I get the error:File ""cluster.py"", line 52, in main    X_cluster_0 = X_train_tfidf[cluster_0]File ""/System/Library/Frameworks/Python.framework/Versions/2.7/Extras/lib/python/scipy/sparse/csr.py"", line 226, in __getitem__    col = key[1]I
…
13, 14973, 15071, 15157, 15208, 15926,16300, 16301, 17138, 17556, 17775, 18236, 19057, 20106, 21014, 21080]),)It's a tuple structure that has content in the 0th position so I changed the line to the following:X_cluster_0 = X_train_tfidf[cluster_0[0]]I am pulling ""documents"" from a database that I can easily obtain the index from (iterate the provided array until I find the respective document [assuming of course that scikit doesn't alter orderings of documents in the matrix]). So I don't understand exactly what X_cluster_0 represents. X_cluster_0 has the following structure:  X_cluster_0:   (0, 42726) 0.741747456202  (0, 13535)    0.115880661286  (0, 17447)    0.117608794277  (0, 44849)    0.414829246262  (0, 14574)    0.10214258736  (0, 17317)    0.0634383214735  (0, 17935)    0.0591234431875  : :  (17, 33867)   0.0174155914371  (17, 48916)   0.0227046046275  (17, 59132)   0.0168864861723  (17, 40860)   0.0485813219503  (17, 63725)   0.0271415763987  (18, 45019)   0.490135684209  (18, 36168)   0.14595160766  (18, 52304)   0.139590524213  (18, 63586)   0.16501953796  (18, 28709)   0.15075416279  (18, 11495)   0.0926490431993  (18, 40860)   0.124236878928Calculating Distance to CentroidCurrently running the suggested code (distance = euclidean(X_cluster_0[0], km.cluster_centers_[0])) results in the following error:File ""cluster.py"", line 68, in main    distance = euclidean(X_cluster_0[0], km.cluster_centers_[0])  File ""/System/Library/Frameworks/Python.framework/Versions/2.7/Extras/lib/python/scipy/spatial/distance.py"", line 211, 
…
